…
test_workers: 4
train_gpu: [0]
use_xyz: True
voxel_max: 30000
voxel_size: 0.04
weight: None
weight_decay: 0.0001
workers: 0
world_size: 1
[2026-05-11 00:06:35,319 INFO train.py line 409 7106] => creating model ...
[2026-05-11 00:06:35,319 INFO train.py line 410 7106] Classes: 3
[2026-05-11 00:06:39,578 INFO train.py line 411 7106] Class weights: tensor([10., 10.,  1.], device='cuda:0')
[2026-05-11 00:06:39,578 INFO train.py line 412 7106] Loss functions: CrossEntropyLoss (weight=1.0) + LovaszLoss (weight=1.0)
[2026-05-11 00:06:39,578 INFO train.py line 413 7106] PointTransformerV3(
  (embedding): Embedding(
    (stem): PointSequential(
      (conv): SubMConv3d(3, 32, kernel_size=[5, 5, 5], stride=[1, 1, 1], padding=[1, 1, 1], dilation=[1, 1, 1], output_padding=[0, 0, 0], bias=False, algo=ConvAlgo.Native)
      (norm): BatchNorm1d(32, eps=0.001, momentum=0.01, affine=True, track_running_stats=True)
      (act): GELU(approximate='none')
    )
  )
  (enc): PointSequential(
    (enc0): PointSequential(
      (block0): Block(
        (cpe): PointSequential(
          (0): SubMConv3d(32, 32, kernel_size=[3, 3, 3], stride=[1, 1, 1], padding=[1, 1, 1], dilation=[1, 1, 1], output_padding=[0, 0, 0], algo=ConvAlgo.Native)
          (1): Linear(in_features=32, out_features=32, bias=True)
          (2): LayerNorm((32,), eps=1e-05, elementwise_affine=True)
        )
        (norm1): PointSequential(
          (0): LayerNorm((32,), eps=1e-05, elementwise_affine=True)
        )
        (attn): SerializedAttention(
          (attn_drop): Dropout(p=0.0, inplace=False)
          (qkv): Linear(in_features=32, out_features=96, bias=True)
          (proj): Linear(in_features=32, out_features=32, bias=True)
          (proj_drop): Dropout(p=0.0, inplace=False)
          (softmax): Softmax(dim=-1)
        )
        (norm2): PointSequential(
          (0): LayerNorm((32,), eps=1e-05, elementwise_affine=True)
        )
        (mlp): PointSequential(
          (0): GRNMLP(
            (fc1): Linear(in_features=32, out_features=128, bias=True)
            (act): GELU(approximate='none')
            (drop): Dropout(p=0.0, inplace=False)
            (fc2): Linear(in_features=128, out_features=32, bias=True)
          )
        )
        (drop_path): PointSequential(
          (0): Identity()
        )
      )
      (block1): Block(
        (cpe): PointSequential(
          (0): SubMConv3d(32, 32, kernel_size=[3, 3, 3], stride=[1, 1, 1], padding=[1, 1, 1], dilation=[1, 1, 1], output_padding=[0, 0, 0], algo=ConvAlgo.Native)
          (1): Linear(in_features=32, out_features=32, bias=True)
          (2): LayerNorm((32,), eps=1e-05, elementwise_affine=True)
        )
        (norm1): PointSequential(
          (0): LayerNorm((32,), eps=1e-05, elementwise_affine=True)
        )
        (attn): SerializedAttention(
          (attn_drop): Dropout(p=0.0, inplace=False)
          (qkv): Linear(in_features=32, out_features=96, bias=True)
          (proj): Linear(in_features=32, out_features=32, bias=True)
          (proj_drop): Dropout(p=0.0, inplace=False)
          (softmax): Softmax(dim=-1)
        )
        (norm2): PointSequential(
          (0): LayerNorm((32,), eps=1e-05, elementwise_affine=True)
        )
        (mlp): PointSequential(
          (0): GRNMLP(
            (fc1): Linear(in_features=32, out_features=128, bias=True)
            (act): GELU(approximate='none')
            (drop): Dropout(p=0.0, inplace=False)
            (fc2): Linear(in_features=128, out_features=32, bias=True)
          )
        )
        (drop_path): PointSequential(
          (0): DropPath(drop_prob=0.023)
        )
      )
    )
    (enc1): PointSequential(
      (down): SerializedPooling(
        (proj): Linear(in_features=32, out_features=64, bias=True)
        (norm): PointSequential(
          (0): BatchNorm1d(64, eps=0.001, momentum=0.01, affine=True, track_running_stats=True)
        )
        (act): PointSequential(
          (0): GELU(approximate='none')
        )
      )
      (block0): Block(
        (cpe): PointSequential(
          (0): SubMConv3d(64, 64, kernel_size=[3, 3, 3], stride=[1, 1, 1], padding=[1, 1, 1], dilation=[1, 1, 1], output_padding=[0, 0, 0], algo=ConvAlgo.Native)
          (1): Linear(in_features=64, out_features=64, bias=True)
          (2): LayerNorm((64,), eps=1e-05, elementwise_affine=True)
        )
        (norm1): PointSequential(
          (0): LayerNorm((64,), eps=1e-05, elementwise_affine=True)
        )
        (attn): SerializedAttention(
          (attn_drop): Dropout(p=0.0, inplace=False)
          (qkv): Linear(in_features=64, out_features=192, bias=True)
          (proj): Linear(in_features=64, out_features=64, bias=True)
          (proj_drop): Dropout(p=0.0, inplace=False)
          (softmax): Softmax(dim=-1)
        )
        (norm2): PointSequential(
          (0): LayerNorm((64,), eps=1e-05, elementwise_affine=True)
        )
        (mlp): PointSequential(
          (0): GRNMLP(
            (fc1): Linear(in_features=64, out_features=256, bias=True)
            (act): GELU(approximate='none')
            (drop): Dropout(p=0.0, inplace=False)
            (fc2): Linear(in_features=256, out_features=64, bias=True)
          )
        )
        (drop_path): PointSequential(
          (0): DropPath(drop_prob=0.046)
        )
      )
      (block1): Block(
        (cpe): PointSequential(
          (0): SubMConv3d(64, 64, kernel_size=[3, 3, 3], stride=[1, 1, 1], padding=[1, 1, 1], dilation=[1, 1, 1], output_padding=[0, 0, 0], algo=ConvAlgo.Native)
          (1): Linear(in_features=64, out_features=64, bias=True)
          (2): LayerNorm((64,), eps=1e-05, elementwise_affine=True)
        )
        (norm1): PointSequential(
          (0): LayerNorm((64,), eps=1e-05, elementwise_affine=True)
        )
        (attn): SerializedAttention(
          (attn_drop): Dropout(p=0.0, inplace=False)
          (qkv): Linear(in_features=64, out_features=192, bias=True)
          (proj): Linear(in_features=64, out_features=64, bias=True)
          (proj_drop): Dropout(p=0.0, inplace=False)
          (softmax): Softmax(dim=-1)
        )
        (norm2): PointSequential(
          (0): LayerNorm((64,), eps=1e-05, elementwise_affine=True)
        )
        (mlp): PointSequential(
          (0): GRNMLP(
            (fc1): Linear(in_features=64, out_features=256, bias=True)
            (act): GELU(approximate='none')
            (drop): Dropout(p=0.0, inplace=False)
            (fc2): Linear(in_features=256, out_features=64, bias=True)
          )
        )
        (drop_path): PointSequential(
          (0): DropPath(drop_prob=0.069)
        )
      )
    )
    (enc2): PointSequential(
      (down): SerializedPooling(
        (proj): Linear(in_features=64, out_features=128, bias=True)
        (norm): PointSequential(
          (0): BatchNorm1d(128, eps=0.001, momentum=0.01, affine=True, track_running_stats=True)
        )
        (act): PointSequential(
          (0): GELU(approximate='none')
        )
      )
      (block0): Block(
        (cpe): PointSequential(
          (0): SubMConv3d(128, 128, kernel_size=[3, 3, 3], stride=[1, 1, 1], padding=[1, 1, 1], dilation=[1, 1, 1], output_padding=[0, 0, 0], algo=ConvAlgo.Native)
          (1): Linear(in_features=128, out_features=128, bias=True)
          (2): LayerNorm((128,), eps=1e-05, elementwise_affine=True)
        )
        (norm1): PointSequential(
          (0): LayerNorm((128,), eps=1e-05, elementwise_affine=True)
        )
        (attn): SerializedAttention(
          (attn_drop): Dropout(p=0.0, inplace=False)
          (qkv): Linear(in_features=128, out_features=384, bias=True)
          (proj): Linear(in_features=128, out_features=128, bias=True)
          (proj_drop): Dropout(p=0.0, inplace=False)
          (softmax): Softmax(dim=-1)
        )
        (norm2): PointSequential(
          (0): LayerNorm((128,), eps=1e-05, elementwise_affine=True)
        )
        (mlp): PointSequential(
          (0): GRNMLP(
            (fc1): Linear(in_features=128, out_features=512, bias=True)
            (act): GELU(approximate='none')
            (drop): Dropout(p=0.0, inplace=False)
            (fc2): Linear(in_features=512, out_features=128, bias=True)
          )
        )
        (drop_path): PointSequential(
          (0): DropPath(drop_prob=0.092)
        )
      )
      (block1): Block(
        (cpe): PointSequential(
          (0): SubMConv3d(128, 128, kernel_size=[3, 3, 3], stride=[1, 1, 1], padding=[1, 1, 1], dilation=[1, 1, 1], output_padding=[0, 0, 0], algo=ConvAlgo.Native)
          (1): Linear(in_features=128, out_features=128, bias=True)
          (2): LayerNorm((128,), eps=1e-05, elementwise_affine=True)
        )
        (norm1): PointSequential(
          (0): LayerNorm((128,), eps=1e-05, elementwise_affine=True)
        )
        (attn): SerializedAttention(
          (attn_drop): Dropout(p=0.0, inplace=False)
          (qkv): Linear(in_features=128, out_features=384, bias=True)
          (proj): Linear(in_features=128, out_features=128, bias=True)
          (proj_drop): Dropout(p=0.0, inplace=False)
          (softmax): Softmax(dim=-1)
        )
        (norm2): PointSequential(
          (0): LayerNorm((128,), eps=1e-05, elementwise_affine=True)
        )
        (mlp): PointSequential(
          (0): GRNMLP(
            (fc1): Linear(in_features=128, out_features=512, bias=True)
            (act): GELU(approximate='none')
            (drop): Dropout(p=0.0, inplace=False)
            (fc2): Linear(in_features=512, out_features=128, bias=True)
          )
        )
        (drop_path): PointSequential(
          (0): DropPath(drop_prob=0.115)
        )
      )
    )
    (enc3): PointSequential(
      (down): SerializedPooling(
        (proj): Linear(in_features=128, out_features=256, bias=True)
        (norm): PointSequential(
          (0): BatchNorm1d(256, eps=0.001, momentum=0.01, affine=True, track_running_stats=True)
        )
        (act): PointSequential(
          (0): GELU(approximate='none')
        )
      )
      (block0): Block(
        (cpe): PointSequential(
          (0): SubMConv3d(256, 256, kernel_size=[3, 3, 3], stride=[1, 1, 1], padding=[1, 1, 1], dilation=[1, 1, 1], output_padding=[0, 0, 0], algo=ConvAlgo.Native)
          (1): Linear(in_features=256, out_features=256, bias=True)
          (2): LayerNorm((256,), eps=1e-05, elementwise_affine=True)
        )
        (norm1): PointSequential(
          (0): LayerNorm((256,), eps=1e-05, elementwise_affine=True)
        )
        (attn): SerializedAttention(
          (attn_drop): Dropout(p=0.0, inplace=False)
          (qkv): Linear(in_features=256, out_features=768, bias=True)
          (proj): Linear(in_features=256, out_features=256, bias=True)
          (proj_drop): Dropout(p=0.0, inplace=False)
          (softmax): Softmax(dim=-1)
        )
        (norm2): PointSequential(
          (0): LayerNorm((256,), eps=1e-05, elementwise_affine=True)
        )
        (mlp): PointSequential(
          (0): GRNMLP(
            (fc1): Linear(in_features=256, out_features=1024, bias=True)
            (act): GELU(approximate='none')
            (drop): Dropout(p=0.0, inplace=False)
            (fc2): Linear(in_features=1024, out_features=256, bias=True)
          )
        )
        (drop_path): PointSequential(
          (0): DropPath(drop_prob=0.138)
        )
      )
      (block1): Block(
        (cpe): PointSequential(
          (0): SubMConv3d(256, 256, kernel_size=[3, 3, 3], stride=[1, 1, 1], padding=[1, 1, 1], dilation=[1, 1, 1], output_padding=[0, 0, 0], algo=ConvAlgo.Native)
          (1): Linear(in_features=256, out_features=256, bias=True)
          (2): LayerNorm((256,), eps=1e-05, elementwise_affine=True)
        )
        (norm1): PointSequential(
          (0): LayerNorm((256,), eps=1e-05, elementwise_affine=True)
        )
        (attn): SerializedAttention(
          (attn_drop): Dropout(p=0.0, inplace=False)
          (qkv): Linear(in_features=256, out_features=768, bias=True)
          (proj): Linear(in_features=256, out_features=256, bias=True)
          (proj_drop): Dropout(p=0.0, inplace=False)
          (softmax): Softmax(dim=-1)
        )
        (norm2): PointSequential(
          (0): LayerNorm((256,), eps=1e-05, elementwise_affine=True)
        )
        (mlp): PointSequential(
          (0): GRNMLP(
            (fc1): Linear(in_features=256, out_features=1024, bias=True)
            (act): GELU(approximate='none')
            (drop): Dropout(p=0.0, inplace=False)
            (fc2): Linear(in_features=1024, out_features=256, bias=True)
          )
        )
        (drop_path): PointSequential(
          (0): DropPath(drop_prob=0.162)
        )
      )
      (block2): Block(
        (cpe): PointSequential(
          (0): SubMConv3d(256, 256, kernel_size=[3, 3, 3], stride=[1, 1, 1], padding=[1, 1, 1], dilation=[1, 1, 1], output_padding=[0, 0, 0], algo=ConvAlgo.Native)
          (1): Linear(in_features=256, out_features=256, bias=True)
          (2): LayerNorm((256,), eps=1e-05, elementwise_affine=True)
        )
        (norm1): PointSequential(
          (0): LayerNorm((256,), eps=1e-05, elementwise_affine=True)
        )
        (attn): SerializedAttention(
          (attn_drop): Dropout(p=0.0, inplace=False)
          (qkv): Linear(in_features=256, out_features=768, bias=True)
          (proj): Linear(in_features=256, out_features=256, bias=True)
          (proj_drop): Dropout(p=0.0, inplace=False)
          (softmax): Softmax(dim=-1)
        )
        (norm2): PointSequential(
          (0): LayerNorm((256,), eps=1e-05, elementwise_affine=True)
        )
        (mlp): PointSequential(
          (0): GRNMLP(
            (fc1): Linear(in_features=256, out_features=1024, bias=True)
            (act): GELU(approximate='none')
            (drop): Dropout(p=0.0, inplace=False)
            (fc2): Linear(in_features=1024, out_features=256, bias=True)
          )
        )
        (drop_path): PointSequential(
          (0): DropPath(drop_prob=0.185)
        )
      )
      (block3): Block(
        (cpe): PointSequential(
          (0): SubMConv3d(256, 256, kernel_size=[3, 3, 3], stride=[1, 1, 1], padding=[1, 1, 1], dilation=[1, 1, 1], output_padding=[0, 0, 0], algo=ConvAlgo.Native)
          (1): Linear(in_features=256, out_features=256, bias=True)
          (2): LayerNorm((256,), eps=1e-05, elementwise_affine=True)
        )
        (norm1): PointSequential(
          (0): LayerNorm((256,), eps=1e-05, elementwise_affine=True)
        )
        (attn): SerializedAttention(
          (attn_drop): Dropout(p=0.0, inplace=False)
          (qkv): Linear(in_features=256, out_features=768, bias=True)
          (proj): Linear(in_features=256, out_features=256, bias=True)
          (proj_drop): Dropout(p=0.0, inplace=False)
          (softmax): Softmax(dim=-1)
        )
        (norm2): PointSequential(
          (0): LayerNorm((256,), eps=1e-05, elementwise_affine=True)
        )
        (mlp): PointSequential(
          (0): GRNMLP(
            (fc1): Linear(in_features=256, out_features=1024, bias=True)
            (act): GELU(approximate='none')
            (drop): Dropout(p=0.0, inplace=False)
            (fc2): Linear(in_features=1024, out_features=256, bias=True)
          )
        )
        (drop_path): PointSequential(
          (0): DropPath(drop_prob=0.208)
        )
      )
      (block4): Block(
        (cpe): PointSequential(
          (0): SubMConv3d(256, 256, kernel_size=[3, 3, 3], stride=[1, 1, 1], padding=[1, 1, 1], dilation=[1, 1, 1], output_padding=[0, 0, 0], algo=ConvAlgo.Native)
          (1): Linear(in_features=256, out_features=256, bias=True)
          (2): LayerNorm((256,), eps=1e-05, elementwise_affine=True)
        )
        (norm1): PointSequential(
          (0): LayerNorm((256,), eps=1e-05, elementwise_affine=True)
        )
        (attn): SerializedAttention(
          (attn_drop): Dropout(p=0.0, inplace=False)
          (qkv): Linear(in_features=256, out_features=768, bias=True)
          (proj): Linear(in_features=256, out_features=256, bias=True)
          (proj_drop): Dropout(p=0.0, inplace=False)
          (softmax): Softmax(dim=-1)
        )
        (norm2): PointSequential(
          (0): LayerNorm((256,), eps=1e-05, elementwise_affine=True)
        )
        (mlp): PointSequential(
          (0): GRNMLP(
            (fc1): Linear(in_features=256, out_features=1024, bias=True)
            (act): GELU(approximate='none')
            (drop): Dropout(p=0.0, inplace=False)
            (fc2): Linear(in_features=1024, out_features=256, bias=True)
          )
        )
        (drop_path): PointSequential(
          (0): DropPath(drop_prob=0.231)
        )
      )
      (block5): Block(
        (cpe): PointSequential(
          (0): SubMConv3d(256, 256, kernel_size=[3, 3, 3], stride=[1, 1, 1], padding=[1, 1, 1], dilation=[1, 1, 1], output_padding=[0, 0, 0], algo=ConvAlgo.Native)
          (1): Linear(in_features=256, out_features=256, bias=True)
          (2): LayerNorm((256,), eps=1e-05, elementwise_affine=True)
        )
        (norm1): PointSequential(
          (0): LayerNorm((256,), eps=1e-05, elementwise_affine=True)
        )
        (attn): SerializedAttention(
          (attn_drop): Dropout(p=0.0, inplace=False)
          (qkv): Linear(in_features=256, out_features=768, bias=True)
          (proj): Linear(in_features=256, out_features=256, bias=True)
          (proj_drop): Dropout(p=0.0, inplace=False)
          (softmax): Softmax(dim=-1)
        )
        (norm2): PointSequential(
          (0): LayerNorm((256,), eps=1e-05, elementwise_affine=True)
        )
        (mlp): PointSequential(
          (0): GRNMLP(
            (fc1): Linear(in_features=256, out_features=1024, bias=True)
            (act): GELU(approximate='none')
            (drop): Dropout(p=0.0, inplace=False)
            (fc2): Linear(in_features=1024, out_features=256, bias=True)
          )
        )
        (drop_path): PointSequential(
          (0): DropPath(drop_prob=0.254)
        )
      )
    )
    (enc4): PointSequential(
      (down): SerializedPooling(
        (proj): Linear(in_features=256, out_features=512, bias=True)
        (norm): PointSequential(
          (0): BatchNorm1d(512, eps=0.001, momentum=0.01, affine=True, track_running_stats=True)
        )
        (act): PointSequential(
          (0): GELU(approximate='none')
        )
      )
      (block0): Block(
        (cpe): PointSequential(
          (0): SubMConv3d(512, 512, kernel_size=[3, 3, 3], stride=[1, 1, 1], padding=[1, 1, 1], dilation=[1, 1, 1], output_padding=[0, 0, 0], algo=ConvAlgo.Native)
          (1): Linear(in_features=512, out_features=512, bias=True)
          (2): LayerNorm((512,), eps=1e-05, elementwise_affine=True)
        )
        (norm1): PointSequential(
          (0): LayerNorm((512,), eps=1e-05, elementwise_affine=True)
        )
        (attn): SerializedAttention(
          (attn_drop): Dropout(p=0.0, inplace=False)
          (qkv): Linear(in_features=512, out_features=1536, bias=True)
          (proj): Linear(in_features=512, out_features=512, bias=True)
          (proj_drop): Dropout(p=0.0, inplace=False)
          (softmax): Softmax(dim=-1)
        )
        (norm2): PointSequential(
          (0): LayerNorm((512,), eps=1e-05, elementwise_affine=True)
        )
        (mlp): PointSequential(
          (0): GRNMLP(
            (fc1): Linear(in_features=512, out_features=2048, bias=True)
            (act): GELU(approximate='none')
            (drop): Dropout(p=0.0, inplace=False)
            (fc2): Linear(in_features=2048, out_features=512, bias=True)
          )
        )
        (drop_path): PointSequential(
          (0): DropPath(drop_prob=0.277)
        )
      )
      (block1): Block(
        (cpe): PointSequential(
          (0): SubMConv3d(512, 512, kernel_size=[3, 3, 3], stride=[1, 1, 1], padding=[1, 1, 1], dilation=[1, 1, 1], output_padding=[0, 0, 0], algo=ConvAlgo.Native)
          (1): Linear(in_features=512, out_features=512, bias=True)
          (2): LayerNorm((512,), eps=1e-05, elementwise_affine=True)
        )
        (norm1): PointSequential(
          (0): LayerNorm((512,), eps=1e-05, elementwise_affine=True)
        )
        (attn): SerializedAttention(
          (attn_drop): Dropout(p=0.0, inplace=False)
          (qkv): Linear(in_features=512, out_features=1536, bias=True)
          (proj): Linear(in_features=512, out_features=512, bias=True)
          (proj_drop): Dropout(p=0.0, inplace=False)
          (softmax): Softmax(dim=-1)
        )
        (norm2): PointSequential(
          (0): LayerNorm((512,), eps=1e-05, elementwise_affine=True)
        )
        (mlp): PointSequential(
          (0): GRNMLP(
            (fc1): Linear(in_features=512, out_features=2048, bias=True)
            (act): GELU(approximate='none')
            (drop): Dropout(p=0.0, inplace=False)
            (fc2): Linear(in_features=2048, out_features=512, bias=True)
          )
        )
        (drop_path): PointSequential(
          (0): DropPath(drop_prob=0.300)
        )
      )
    )
  )
  (dec): PointSequential(
    (dec3): PointSequential(
      (up): SerializedUnpooling(
        (proj): PointSequential(
          (0): Linear(in_features=512, out_features=256, bias=True)
          (1): BatchNorm1d(256, eps=0.001, momentum=0.01, affine=True, track_running_stats=True)
          (2): GELU(approximate='none')
        )
        (proj_skip): PointSequential(
          (0): Linear(in_features=256, out_features=256, bias=True)
          (1): BatchNorm1d(256, eps=0.001, momentum=0.01, affine=True, track_running_stats=True)
          (2): GELU(approximate='none')
        )
      )
      (block0): Block(
        (cpe): PointSequential(
          (0): SubMConv3d(256, 256, kernel_size=[3, 3, 3], stride=[1, 1, 1], padding=[1, 1, 1], dilation=[1, 1, 1], output_padding=[0, 0, 0], algo=ConvAlgo.Native)
          (1): Linear(in_features=256, out_features=256, bias=True)
          (2): LayerNorm((256,), eps=1e-05, elementwise_affine=True)
        )
        (norm1): PointSequential(
          (0): LayerNorm((256,), eps=1e-05, elementwise_affine=True)
        )
        (attn): SerializedAttention(
          (attn_drop): Dropout(p=0.0, inplace=False)
          (qkv): Linear(in_features=256, out_features=768, bias=True)
          (proj): Linear(in_features=256, out_features=256, bias=True)
          (proj_drop): Dropout(p=0.0, inplace=False)
          (softmax): Softmax(dim=-1)
        )
        (norm2): PointSequential(
          (0): LayerNorm((256,), eps=1e-05, elementwise_affine=True)
        )
        (mlp): PointSequential(
          (0): GRNMLP(
            (fc1): Linear(in_features=256, out_features=1024, bias=True)
            (act): GELU(approximate='none')
            (drop): Dropout(p=0.0, inplace=False)
            (fc2): Linear(in_features=1024, out_features=256, bias=True)
          )
        )
        (drop_path): PointSequential(
          (0): DropPath(drop_prob=0.300)
        )
      )
      (block1): Block(
        (cpe): PointSequential(
          (0): SubMConv3d(256, 256, kernel_size=[3, 3, 3], stride=[1, 1, 1], padding=[1, 1, 1], dilation=[1, 1, 1], output_padding=[0, 0, 0], algo=ConvAlgo.Native)
          (1): Linear(in_features=256, out_features=256, bias=True)
          (2): LayerNorm((256,), eps=1e-05, elementwise_affine=True)
        )
        (norm1): PointSequential(
          (0): LayerNorm((256,), eps=1e-05, elementwise_affine=True)
        )
        (attn): SerializedAttention(
          (attn_drop): Dropout(p=0.0, inplace=False)
          (qkv): Linear(in_features=256, out_features=768, bias=True)
          (proj): Linear(in_features=256, out_features=256, bias=True)
          (proj_drop): Dropout(p=0.0, inplace=False)
          (softmax): Softmax(dim=-1)
        )
        (norm2): PointSequential(
          (0): LayerNorm((256,), eps=1e-05, elementwise_affine=True)
        )
        (mlp): PointSequential(
          (0): GRNMLP(
            (fc1): Linear(in_features=256, out_features=1024, bias=True)
            (act): GELU(approximate='none')
            (drop): Dropout(p=0.0, inplace=False)
            (fc2): Linear(in_features=1024, out_features=256, bias=True)
          )
        )
        (drop_path): PointSequential(
          (0): DropPath(drop_prob=0.257)
        )
      )
      (ema3): EMAPointAdapter(
        (ema): EMA(
          (softmax): Softmax(dim=-1)
          (agp): AdaptiveAvgPool1d(output_size=1)
          (gn): GroupNorm(8, 8, eps=1e-05, affine=True)
          (conv1x1): Conv1d(8, 8, kernel_size=(1,), stride=(1,))
          (conv3x3): Conv1d(8, 8, kernel_size=(3,), stride=(1,), padding=(1,))
        )
      )
    )
    (dec2): PointSequential(
      (up): SerializedUnpooling(
        (proj): PointSequential(
          (0): Linear(in_features=256, out_features=128, bias=True)
          (1): BatchNorm1d(128, eps=0.001, momentum=0.01, affine=True, track_running_stats=True)
          (2): GELU(approximate='none')
        )
        (proj_skip): PointSequential(
          (0): Linear(in_features=128, out_features=128, bias=True)
          (1): BatchNorm1d(128, eps=0.001, momentum=0.01, affine=True, track_running_stats=True)
          (2): GELU(approximate='none')
        )
      )
      (block0): Block(
        (cpe): PointSequential(
          (0): SubMConv3d(128, 128, kernel_size=[3, 3, 3], stride=[1, 1, 1], padding=[1, 1, 1], dilation=[1, 1, 1], output_padding=[0, 0, 0], algo=ConvAlgo.Native)
          (1): Linear(in_features=128, out_features=128, bias=True)
          (2): LayerNorm((128,), eps=1e-05, elementwise_affine=True)
        )
        (norm1): PointSequential(
          (0): LayerNorm((128,), eps=1e-05, elementwise_affine=True)
        )
        (attn): SerializedAttention(
          (attn_drop): Dropout(p=0.0, inplace=False)
          (qkv): Linear(in_features=128, out_features=384, bias=True)
          (proj): Linear(in_features=128, out_features=128, bias=True)
          (proj_drop): Dropout(p=0.0, inplace=False)
          (softmax): Softmax(dim=-1)
        )
        (norm2): PointSequential(
          (0): LayerNorm((128,), eps=1e-05, elementwise_affine=True)
        )
        (mlp): PointSequential(
          (0): GRNMLP(
            (fc1): Linear(in_features=128, out_features=512, bias=True)
            (act): GELU(approximate='none')
            (drop): Dropout(p=0.0, inplace=False)
            (fc2): Linear(in_features=512, out_features=128, bias=True)
          )
        )
        (drop_path): PointSequential(
          (0): DropPath(drop_prob=0.214)
        )
      )
      (block1): Block(
        (cpe): PointSequential(
          (0): SubMConv3d(128, 128, kernel_size=[3, 3, 3], stride=[1, 1, 1], padding=[1, 1, 1], dilation=[1, 1, 1], output_padding=[0, 0, 0], algo=ConvAlgo.Native)
          (1): Linear(in_features=128, out_features=128, bias=True)
          (2): LayerNorm((128,), eps=1e-05, elementwise_affine=True)
        )
        (norm1): PointSequential(
          (0): LayerNorm((128,), eps=1e-05, elementwise_affine=True)
        )
        (attn): SerializedAttention(
          (attn_drop): Dropout(p=0.0, inplace=False)
          (qkv): Linear(in_features=128, out_features=384, bias=True)
          (proj): Linear(in_features=128, out_features=128, bias=True)
          (proj_drop): Dropout(p=0.0, inplace=False)
          (softmax): Softmax(dim=-1)
        )
        (norm2): PointSequential(
          (0): LayerNorm((128,), eps=1e-05, elementwise_affine=True)
        )
        (mlp): PointSequential(
          (0): GRNMLP(
            (fc1): Linear(in_features=128, out_features=512, bias=True)
            (act): GELU(approximate='none')
            (drop): Dropout(p=0.0, inplace=False)
            (fc2): Linear(in_features=512, out_features=128, bias=True)
          )
        )
        (drop_path): PointSequential(
          (0): DropPath(drop_prob=0.171)
        )
      )
      (ema2): EMAPointAdapter(
        (ema): EMA(
          (softmax): Softmax(dim=-1)
          (agp): AdaptiveAvgPool1d(output_size=1)
          (gn): GroupNorm(4, 4, eps=1e-05, affine=True)
          (conv1x1): Conv1d(4, 4, kernel_size=(1,), stride=(1,))
          (conv3x3): Conv1d(4, 4, kernel_size=(3,), stride=(1,), padding=(1,))
        )
      )
    )
    (dec1): PointSequential(
      (up): SerializedUnpooling(
        (proj): PointSequential(
          (0): Linear(in_features=128, out_features=64, bias=True)
          (1): BatchNorm1d(64, eps=0.001, momentum=0.01, affine=True, track_running_stats=True)
          (2): GELU(approximate='none')
        )
        (proj_skip): PointSequential(
          (0): Linear(in_features=64, out_features=64, bias=True)
          (1): BatchNorm1d(64, eps=0.001, momentum=0.01, affine=True, track_running_stats=True)
          (2): GELU(approximate='none')
        )
      )
      (block0): Block(
        (cpe): PointSequential(
          (0): SubMConv3d(64, 64, kernel_size=[3, 3, 3], stride=[1, 1, 1], padding=[1, 1, 1], dilation=[1, 1, 1], output_padding=[0, 0, 0], algo=ConvAlgo.Native)
          (1): Linear(in_features=64, out_features=64, bias=True)
          (2): LayerNorm((64,), eps=1e-05, elementwise_affine=True)
        )
        (norm1): PointSequential(
          (0): LayerNorm((64,), eps=1e-05, elementwise_affine=True)
        )
        (attn): SerializedAttention(
          (attn_drop): Dropout(p=0.0, inplace=False)
          (qkv): Linear(in_features=64, out_features=192, bias=True)
          (proj): Linear(in_features=64, out_features=64, bias=True)
          (proj_drop): Dropout(p=0.0, inplace=False)
          (softmax): Softmax(dim=-1)
        )
        (norm2): PointSequential(
          (0): LayerNorm((64,), eps=1e-05, elementwise_affine=True)
        )
        (mlp): PointSequential(
          (0): GRNMLP(
            (fc1): Linear(in_features=64, out_features=256, bias=True)
            (act): GELU(approximate='none')
            (drop): Dropout(p=0.0, inplace=False)
            (fc2): Linear(in_features=256, out_features=64, bias=True)
          )
        )
        (drop_path): PointSequential(
          (0): DropPath(drop_prob=0.129)
        )
      )
      (block1): Block(
        (cpe): PointSequential(
          (0): SubMConv3d(64, 64, kernel_size=[3, 3, 3], stride=[1, 1, 1], padding=[1, 1, 1], dilation=[1, 1, 1], output_padding=[0, 0, 0], algo=ConvAlgo.Native)
          (1): Linear(in_features=64, out_features=64, bias=True)
          (2): LayerNorm((64,), eps=1e-05, elementwise_affine=True)
        )
        (norm1): PointSequential(
          (0): LayerNorm((64,), eps=1e-05, elementwise_affine=True)
        )
        (attn): SerializedAttention(
          (attn_drop): Dropout(p=0.0, inplace=False)
          (qkv): Linear(in_features=64, out_features=192, bias=True)
          (proj): Linear(in_features=64, out_features=64, bias=True)
          (proj_drop): Dropout(p=0.0, inplace=False)
          (softmax): Softmax(dim=-1)
        )
        (norm2): PointSequential(
          (0): LayerNorm((64,), eps=1e-05, elementwise_affine=True)
        )
        (mlp): PointSequential(
          (0): GRNMLP(
            (fc1): Linear(in_features=64, out_features=256, bias=True)
            (act): GELU(approximate='none')
            (drop): Dropout(p=0.0, inplace=False)
            (fc2): Linear(in_features=256, out_features=64, bias=True)
          )
        )
        (drop_path): PointSequential(
          (0): DropPath(drop_prob=0.086)
        )
      )
      (ema1): EMAPointAdapter(
        (ema): EMA(
          (softmax): Softmax(dim=-1)
          (agp): AdaptiveAvgPool1d(output_size=1)
          (gn): GroupNorm(2, 2, eps=1e-05, affine=True)
          (conv1x1): Conv1d(2, 2, kernel_size=(1,), stride=(1,))
          (conv3x3): Conv1d(2, 2, kernel_size=(3,), stride=(1,), padding=(1,))
        )
      )
      (ssm1): PointStateMixer(
        (norm): GroupNorm(1, 64, eps=1e-05, affine=True)
        (in_proj): Conv1d(64, 128, kernel_size=(1,), stride=(1,), bias=False)
        (forward_mixer): Conv1d(128, 128, kernel_size=(5,), stride=(1,), padding=(2,), groups=128, bias=False)
        (backward_mixer): Conv1d(128, 128, kernel_size=(5,), stride=(1,), padding=(2,), groups=128, bias=False)
        (out_proj): Conv1d(128, 64, kernel_size=(1,), stride=(1,), bias=False)
        (channel_gate): Conv1d(64, 64, kernel_size=(1,), stride=(1,), bias=False)
        (drop): Dropout(p=0.0, inplace=False)
      )
    )
    (dec0): PointSequential(
      (up): SerializedUnpooling(
        (proj): PointSequential(
          (0): Linear(in_features=64, out_features=64, bias=True)
          (1): BatchNorm1d(64, eps=0.001, momentum=0.01, affine=True, track_running_stats=True)
          (2): GELU(approximate='none')
        )
        (proj_skip): PointSequential(
          (0): Linear(in_features=32, out_features=64, bias=True)
          (1): BatchNorm1d(64, eps=0.001, momentum=0.01, affine=True, track_running_stats=True)
          (2): GELU(approximate='none')
        )
      )
      (block0): Block(
        (cpe): PointSequential(
          (0): SubMConv3d(64, 64, kernel_size=[3, 3, 3], stride=[1, 1, 1], padding=[1, 1, 1], dilation=[1, 1, 1], output_padding=[0, 0, 0], algo=ConvAlgo.Native)
          (1): Linear(in_features=64, out_features=64, bias=True)
          (2): LayerNorm((64,), eps=1e-05, elementwise_affine=True)
        )
        (norm1): PointSequential(
          (0): LayerNorm((64,), eps=1e-05, elementwise_affine=True)
        )
        (attn): SerializedAttention(
          (attn_drop): Dropout(p=0.0, inplace=False)
          (qkv): Linear(in_features=64, out_features=192, bias=True)
          (proj): Linear(in_features=64, out_features=64, bias=True)
          (proj_drop): Dropout(p=0.0, inplace=False)
          (softmax): Softmax(dim=-1)
        )
        (norm2): PointSequential(
          (0): LayerNorm((64,), eps=1e-05, elementwise_affine=True)
        )
        (mlp): PointSequential(
          (0): GRNMLP(
            (fc1): Linear(in_features=64, out_features=256, bias=True)
            (act): GELU(approximate='none')
            (drop): Dropout(p=0.0, inplace=False)
            (fc2): Linear(in_features=256, out_features=64, bias=True)
          )
        )
        (drop_path): PointSequential(
          (0): DropPath(drop_prob=0.043)
        )
      )
      (block1): Block(
        (cpe): PointSequential(
          (0): SubMConv3d(64, 64, kernel_size=[3, 3, 3], stride=[1, 1, 1], padding=[1, 1, 1], dilation=[1, 1, 1], output_padding=[0, 0, 0], algo=ConvAlgo.Native)
          (1): Linear(in_features=64, out_features=64, bias=True)
          (2): LayerNorm((64,), eps=1e-05, elementwise_affine=True)
        )
        (norm1): PointSequential(
          (0): LayerNorm((64,), eps=1e-05, elementwise_affine=True)
        )
        (attn): SerializedAttention(
          (attn_drop): Dropout(p=0.0, inplace=False)
          (qkv): Linear(in_features=64, out_features=192, bias=True)
          (proj): Linear(in_features=64, out_features=64, bias=True)
          (proj_drop): Dropout(p=0.0, inplace=False)
          (softmax): Softmax(dim=-1)
        )
        (norm2): PointSequential(
          (0): LayerNorm((64,), eps=1e-05, elementwise_affine=True)
        )
        (mlp): PointSequential(
          (0): GRNMLP(
            (fc1): Linear(in_features=64, out_features=256, bias=True)
            (act): GELU(approximate='none')
            (drop): Dropout(p=0.0, inplace=False)
            (fc2): Linear(in_features=256, out_features=64, bias=True)
          )
        )
        (drop_path): PointSequential(
          (0): Identity()
        )
      )
      (ema0): EMAPointAdapter(
        (ema): EMA(
          (softmax): Softmax(dim=-1)
          (agp): AdaptiveAvgPool1d(output_size=1)
          (gn): GroupNorm(2, 2, eps=1e-05, affine=True)
          (conv1x1): Conv1d(2, 2, kernel_size=(1,), stride=(1,))
          (conv3x3): Conv1d(2, 2, kernel_size=(3,), stride=(1,), padding=(1,))
        )
      )
      (ssm0): PointStateMixer(
        (norm): GroupNorm(1, 64, eps=1e-05, affine=True)
        (in_proj): Conv1d(64, 128, kernel_size=(1,), stride=(1,), bias=False)
        (forward_mixer): Conv1d(128, 128, kernel_size=(5,), stride=(1,), padding=(2,), groups=128, bias=False)
        (backward_mixer): Conv1d(128, 128, kernel_size=(5,), stride=(1,), padding=(2,), groups=128, bias=False)
        (out_proj): Conv1d(128, 64, kernel_size=(1,), stride=(1,), bias=False)
        (channel_gate): Conv1d(64, 64, kernel_size=(1,), stride=(1,), bias=False)
        (drop): Dropout(p=0.0, inplace=False)
      )
    )
  )
  (seg_head): Sequential(
    (0): Linear(in_features=64, out_features=64, bias=True)
    (1): BatchNorm1d(64, eps=1e-05, momentum=0.1, affine=True, track_running_stats=True)
    (2): ReLU(inplace=True)
    (3): Linear(in_features=64, out_features=3, bias=True)
  )
)
[2026-05-11 00:06:39,735 INFO train.py line 458 7106] train_data samples: '200'
[2026-05-11 00:07:51,150 INFO train.py line 671 7106] Epoch: [1/100][1/100] Data 33.029 (33.029) Batch 71.391 (71.391) Remain 198:17:15 Loss 1.6668 (CE: 1.0077, Lovasz: 0.6591) Accuracy 0.4378.
[2026-05-11 00:08:04,656 INFO train.py line 671 7106] Epoch: [1/100][2/100] Data 12.626 (22.828) Batch 13.506 (42.449) Remain 117:53:20 Loss 1.8023 (CE: 1.0718, Lovasz: 0.7304) Accuracy 0.3651.
…
